data_ground_truth/mu_theta.npy (npy, 1736 bytes, 1 tensors)

array f8 [1, 201]
1.5707963267948966 1.6965900522791788 1.6891481561850414 1.5416633582353034 1.3232404179724078 1.1414370190974181 1.0839607561802733 1.1711261151760728
1.344842747401799 1.5001040834105717 1.5419074822855612 1.4367516239725466 1.2307963267948963 1.0248410296172459 0.9196851713042313 0.9614885701792207
1.1167499061879935 1.2904665384137197 1.3776318974095192 1.3201556344923742 1.1383522356173847 0.9199292953544892 0.7724444974047515 0.7650026013106144
0.8907963267948972 1.0707963267948972 1.1965900522791797 1.189148156185042 1.041663358235304 0.8232404179724084 0.6414370190974188 0.5839607561802735
0.6711261151760731 0.8448427474017994 1.0001040834105719 1.0419074822855616 0.9367516239725474 0.730796326794897 0.5248410296172468 0.4196851713042328
0.461488570179222 0.6167499061879949 0.790466538413721 0.8776318974095203 0.8201556344923748 0.6383522356173855 0.41992929535449 0.1357620132872135
0.13981532221078963 0.23835977057713714 0.5709455914367619 0.7526334717761347 0.6669391661468733 0.4851286185433242 0.27319871276407165 0.09388407012844989
0.049964339631964845 0.11970190974652364 0.20117094893495957 0.23292300790036785 0.3014648141219824 0.21737159265559983 0.059330526364127376 -0.082503004555153
-0.19665754519062492 -0.14452112423591024 -0.05358015518622817 0.08344073477808184 0.153543609510914 0.03625858139685406 -0.13203175920138038 -0.3921554695909439
-0.4886545259889541 -0.4790243636028919 -0.3438097473130755 -0.2127989529608997 -0.12393961173119121 -0.12815997011303676 -0.29435630384221706 -0.5042557244802661
-0.6948394269743459 -0.7214847759376184 -0.5657450865161129 -0.40459669050115676 -0.18887765854215074 -0.2116797492859402 -0.33855582319998456 -0.5208956380275825
-0.774988004809183 -0.9283244542240462 -0.8851640986509155 -0.6674244194330969 -0.5377302851315935 -0.4251094313435799 -0.5041924815155918 -0.619903897939156
-0.8857464585557872 -1.029811422801781 -0.9671864451691587 -0.8021781575592992 -0.6514122171161303 -0.5536836126012827 -0.5333217312353089 -0.7490967223029475
-0.8989845322993468 -1.0282990161614203 -1.0379888339050227 -0.9569588198280518 -0.7042087090667296 -0.5466766891196037 -0.5030198017729527 -0.6066689806495076
-0.8641111368896292 -1.0416562404288268 -1.106158064382958 -1.0212809825198272 -0.8798582658160157 -0.7418019846758998 -0.6530913294184356 -0.7690759324876637
-1.023755586528145 -1.3570429223203682 -1.4431955260009472 -1.380279262002698 -1.3335993299477398 -1.0751569051720649 -0.9995438879132987 -1.0432551788262425
-1.1563309529183352 -1.3939631199079567 -1.601258570769046 -1.6639253122295412 -1.5230869451982838 -1.3356143822633533 -1.1875612611963013 -1.0952646731693039
-1.1679866763599922 -1.353654598336835 -1.5388100100039244 -1.5862714178325183 -1.478997304343121 -1.281626885040007 -1.132368079712992 -1.055324184353196
-1.1366610517303064 -1.321992896863329 -1.5404158371262242 -1.6879006350759609 -1.6953425311700974 -1.5695488056858151 -1.3895488056858152 -1.2637550802015336
-1.2711969762956712 -1.4186817742454085 -1.637104714508304 -1.8189081133832932 -1.8763843763004355 -1.7892190173046347 -1.6155023850789083 -1.4602410490701354
-1.418437650195145 -1.5235935085081604 -1.7295488056858097 -1.9355041028634603 -2.0406599611764737 -1.9988565623014865 -1.8435952262927127 -1.669878594066986
-1.5827132350711872 -1.640189497988335 -1.821992896863322 -2.040415837126217 -2.187900635075955 -2.1953425311700903 -2.0695488056858053 -1.8895488056858054
-1.7637550802015247 -1.7711969762956608 -1.9186817742453992 -2.137104714508295 -2.3189081133832854 -2.3763843763004293 -2.2892190173046325 -2.1155023850789063
-1.960241049070134 -1.9184376501951421 -2.023593508508156 -2.2295488056858046 -2.435504102863456 -2.5406599611764706 -2.4988565623014796 -2.343595226292705
-2.1698785940669802 -2.0827132350711826 -2.1401894979883314 -2.321992896863321 -2.5404158371262167 -2.6879006350759513 -2.695342531170088 -2.569548805685804
-2.389548805685804
00000000: 182d 4454 fb21 f93f c820 549c 3b25 fb3f
00000010: 819d 8e37 c006 fb3f 9cfe 9032 a7aa f83f
00000020: 63fd fe24 fe2b f53f 6679 b776 5343 f23f
00000030: 3811 df3b e757 f13f a2c3 c2bc eebc f23f
00000040: 00a8 25d4 7984 f53f ea82 ad23 6d00 f83f
00000050: a9fc 1d2e a7ab f83f dcfd 5645 effc f63f
00000060: a6ef 397d 57b1 f33f 70e1 1cb5 bf65 f03f
00000070: 46c5 ab98 0f6e ed3f c3b8 8cad 83c4 ee3f
00000080: 4c37 4e26 35de f13f aa1b b13d c0a5 f43f
00000090: 14ce 94be c70a f63f e565 bc83 5b1f f53f
000000a0: e9e1 74d5 b036 f23f 61c1 c58f 0f70 ed3f
000000b0: 9a83 ca85 ddb7 e83f 0e7d 3fbc e67a e83f
000000c0: 7364 5f4c 6781 ec3f 1b2d 4454 fb21 f13f
000000d0: cc20 549c 3b25 f33f 849d 8e37 c006 f33f
000000e0: 9ffe 9032 a7aa f03f ccfa fd49 fc57 ea3f
000000f0: d2f2 6eed a686 e43f 7222 be77 ceaf e23f
00000100: 4787 8579 dd79 e53f 0450 4ba8 f308 eb3f
00000110: eb82 ad23 6d00 f03f abfc 1d2e a7ab f03f
00000120: bffb ad8a def9 ed3f 53df 73fa ae62 e73f
00000130: e8c2 396a 7fcb e03f a68a 5731 1fdc da3f
00000140: 9d71 195b 0789 dd3f a46e 9c4c 6abc e33f
00000150: 6037 627b 804b e93f 329c 297d 8f15 ec3f
00000160: d0cb 7807 b73e ea3f d9c3 e9aa 616d e43f
00000170: d082 8b1f 1fe0 da3f 18c9 8d4f a660 c13f
00000180: 7001 30ee 77e5 c13f 7eca a7ad 9282 ce3f
00000190: 4985 60b0 2f45 e23f f6e8 64ca 9215 e83f
000001a0: f0b6 60ce 9057 e53f b9d2 bfe7 580c df3f
000001b0: 1162 2874 167c d13f 072b d152 c908 b83f
000001c0: 39fd 5e09 ed94 a93f ca4b a1cb c8a4 be3f
000001d0: 285c 4a3b f8bf c93f fe81 b5ce 6bd0 cd3f
000001e0: cf1c 6313 334b d33f 9582 c414 d5d2 cb3f
000001f0: 6edb c61c 9260 ae3f d6d8 62ba ea1e b5bf
00000200: f77c 8d0e 132c c9bf 5452 160f ab7f c2bf
00000210: d199 7aac db6e abbf 9cac 063b 5f5c b53f
00000220: 4af9 ad26 51a7 c33f d801 991a 7c90 a23f
00000230: bed1 e6ab 6ae6 c0bf d3cc 3541 1319 d9bf
00000240: 608e 0aa2 1d46 dfbf 3458 eacd 55a8 debf
00000250: 1d5d 3099 fa00 d6bf 9d88 cbff fe3c cbbf
00000260: cb7c 10a3 81ba bfbf b25a 25c0 8b67 c0bf
00000270: b5eb 97d2 bbd6 d2bf 3cd5 aee6 dc22 e0bf
00000280: 3270 dae4 1f3c e6bf c0d8 a63d 6716 e7bf
00000290: 5eb3 8e70 951a e2bf 666d 7184 e9e4 d9bf
000002a0: 8f19 31a3 242d c8bf c24c 3470 5218 cbbf
000002b0: 28ea 200b e6aa d5bf 03a4 3e54 2dab e0bf
000002c0: d153 eea4 b3cc e8bf bb04 5f7c d5b4 edbf
000002d0: 6891 e9a8 4353 ecbf c28a c074 8a5b e5bf
000002e0: b6af 9624 1635 e1bf 98e0 3530 fe34 dbbf
000002f0: 22f4 5f45 5822 e0bf 9af8 09b3 40d6 e3bf
00000300: 0770 01f5 0858 ecbf adb1 df8a 1b7a f0bf
00000310: 645a e4fc 30f3 eebf 160c 0987 71ab e9bf
00000320: f250 176f 5ed8 e4bf 3e84 0eb2 c6b7 e1bf
00000330: 2adb 3cbc f810 e1bf 5d9f 7ab0 99f8 e7bf
00000340: d4bc ba35 7bc4 ecbf a4c1 4eab e973 f0bf
00000350: 94c3 f32d 9a9b f0bf b7f7 581a 689f eebf
00000360: dbff dfb3 e088 e6bf df22 a81c 607e e1bf
00000370: 155e bbfb bc18 e0bf b264 ec10 d569 e3bf
00000380: 5b9c 2166 cca6 ebbf d80e e5bb 9faa f0bf
00000390: 17b4 6bcc d2b2 f1bf c430 3fba 2a57 f0bf
000003a0: 2671 9985 cc27 ecbf e94e 0984 d7bc e7bf
000003b0: 31e8 a4c9 1fe6 e4bf 669b 4521 459c e8bf
000003c0: 59c5 b389 4d61 f0bf e325 aaa3 72b6 f5bf
000003d0: 7985 1e31 5417 f7bf ae60 1ab5 9f15 f6bf
000003e0: 287d 4140 6c56 f5bf 7f85 1cba d733 f1bf
000003f0: 4a23 b076 43fc efbf be0f a757 2cb1 f0bf
00000400: 3130 a2e2 5480 f2bf 585b bd45 ac4d f6bf
00000410: b948 9e4e c19e f9bf 1233 f025 709f fabf
00000420: 7275 a96a 905e f8bf a936 be2f ad5e f5bf
00000430: a35a ad3c 4000 f3bf e19e fb3f 3486 f1bf
00000440: 1514 12cc 12b0 f2bf d1fc 5eb9 91a8 f5bf
00000450: af96 bb3e f79e f8bf 36b9 6223 5e61 f9bf
00000460: f069 d013 f9a9 f7bf 29bd 4e31 8b81 f4bf
00000470: 0b6d d6fd 2d1e f2bf fe98 a79c 9be2 f0bf
00000480: 1c19 bd7f c32f f2bf 2328 1906 e226 f5bf
00000490: 5a29 ab13 8ba5 f8bf 39c8 a818 a401 fbbf
000004a0: 7c4b 6e7d 1f20 fbbf cc57 5e35 df1c f9bf
000004b0: ebdc 4987 973b f6bf 3ee9 393f 5738 f4bf
000004c0: 866c ffa3 d256 f4bf 680b fda8 ebb2 f6bf
000004d0: a00c 8fb6 9431 fabf 9b90 d664 3f1a fdbf
000004e0: bef8 ae9f ab05 febf 4e46 cb1e a4a0 fcbf
000004f0: ef61 6807 19d9 f9bf 0487 e0b7 255d f7bf
00000500: 410d 70ad ebb1 f6bf 120c 3796 a360 f8bf
00000510: 431a 545e 3bac fbbf 7a28 7126 d3f7 febf
00000520: a113 9c87 4553 00c0 8dad c704 51fb ffbf
00000530: 9ed2 3fb5 5d7f fdbf 3eee dc9d d2b7 fabf
00000540: d73b f91c cb52 f9bf 12a4 d157 373e fabf
00000550: 0428 1906 e226 fdbf 9d94 d589 c552 00c0
00000560: 0f64 540c d280 01c0 ae25 b7be 0f90 01c0
00000570: d02b af9a 6f8e 00c0 bfdc 4987 973b febf
00000580: 16e9 393f 5738 fcbf 576c ffa3 d256 fcbf
00000590: 3e0b fda8 ebb2 febf 3c86 475b ca18 01c0
000005a0: 3c48 6bb2 1f8d 02c0 517c d7cf d502 03c0
000005b0: 22a3 650f 5250 02c0 f330 b483 8cec 00c0
000005c0: fe86 e0b7 255d ffbf 340d 70ad ebb1 febf
000005d0: ff85 1bcb 5130 00c0 160d 2aaf 1dd6 01c0
000005e0: 3394 3893 e97b 03c0 9a13 9c87 4553 04c0
000005f0: b7d6 6382 a8fd 03c0 3ee9 9fda aebf 02c0
00000600: 1277 ee4e e95b 01c0 e19d 7c8e 65a9 00c0
00000610: 01d2 e8ab 1b1f 01c0 0094 0c03 7193 02c0
00000620: 9c94 d589 c552 04c0 0764 540c d280 05c0
00000630: a925 b7be 0f90 05c0 cd2b af9a 6f8e 04c0
00000640: 5cee a4c3 cb1d 03c0
