data_ground_truth/mu_theta.npy (npy, 1736 bytes, 1 tensors)

array f8 [1, 201]
000000 18 2d 44 54 fb 21 f9 3f c8 20 54 9c 3b 25 fb 3f
       1.5707963267948966 1.6965900522791788
000010 81 9d 8e 37 c0 06 fb 3f 9c fe 90 32 a7 aa f8 3f
       1.6891481561850414 1.5416633582353034
000020 63 fd fe 24 fe 2b f5 3f 66 79 b7 76 53 43 f2 3f
       1.3232404179724078 1.1414370190974181
000030 38 11 df 3b e7 57 f1 3f a2 c3 c2 bc ee bc f2 3f
       1.0839607561802733 1.1711261151760728
000040 00 a8 25 d4 79 84 f5 3f ea 82 ad 23 6d 00 f8 3f
       1.344842747401799 1.5001040834105717
000050 a9 fc 1d 2e a7 ab f8 3f dc fd 56 45 ef fc f6 3f
       1.5419074822855612 1.4367516239725466
000060 a6 ef 39 7d 57 b1 f3 3f 70 e1 1c b5 bf 65 f0 3f
       1.2307963267948963 1.0248410296172459
000070 46 c5 ab 98 0f 6e ed 3f c3 b8 8c ad 83 c4 ee 3f
       0.9196851713042313 0.9614885701792207
000080 4c 37 4e 26 35 de f1 3f aa 1b b1 3d c0 a5 f4 3f
       1.1167499061879935 1.2904665384137197
000090 14 ce 94 be c7 0a f6 3f e5 65 bc 83 5b 1f f5 3f
       1.3776318974095192 1.3201556344923742
0000a0 e9 e1 74 d5 b0 36 f2 3f 61 c1 c5 8f 0f 70 ed 3f
       1.1383522356173847 0.9199292953544892
0000b0 9a 83 ca 85 dd b7 e8 3f 0e 7d 3f bc e6 7a e8 3f
       0.7724444974047515 0.7650026013106144
0000c0 73 64 5f 4c 67 81 ec 3f 1b 2d 44 54 fb 21 f1 3f
       0.8907963267948972 1.0707963267948972
0000d0 cc 20 54 9c 3b 25 f3 3f 84 9d 8e 37 c0 06 f3 3f
       1.1965900522791797 1.189148156185042
0000e0 9f fe 90 32 a7 aa f0 3f cc fa fd 49 fc 57 ea 3f
       1.041663358235304 0.8232404179724084
0000f0 d2 f2 6e ed a6 86 e4 3f 72 22 be 77 ce af e2 3f
       0.6414370190974188 0.5839607561802735
000100 47 87 85 79 dd 79 e5 3f 04 50 4b a8 f3 08 eb 3f
       0.6711261151760731 0.8448427474017994
000110 eb 82 ad 23 6d 00 f0 3f ab fc 1d 2e a7 ab f0 3f
       1.0001040834105719 1.0419074822855616
000120 bf fb ad 8a de f9 ed 3f 53 df 73 fa ae 62 e7 3f
       0.9367516239725474 0.730796326794897
000130 e8 c2 39 6a 7f cb e0 3f a6 8a 57 31 1f dc da 3f
       0.5248410296172468 0.4196851713042328
000140 9d 71 19 5b 07 89 dd 3f a4 6e 9c 4c 6a bc e3 3f
       0.461488570179222 0.6167499061879949
000150 60 37 62 7b 80 4b e9 3f 32 9c 29 7d 8f 15 ec 3f
       0.790466538413721 0.8776318974095203
000160 d0 cb 78 07 b7 3e ea 3f 5b 74 c7 4c 49 8d e0 3f
       0.8201556344923748 0.5172468661873028
000170 0e 9d 2d 34 bb 49 d3 3f a7 ff e9 fe 63 6b c9 3f
       0.3013751992752568 0.19858980128264855
000180 8f b1 32 db de 4b c8 3f fe 53 30 88 70 08 d5 3f
       0.1898153848936883 0.3286401109665461
000190 d2 1d 60 08 94 61 e1 3f bc 51 25 d5 aa 32 e6 3f
       0.5431614078124147 0.6936849749568448
0001a0 14 f3 86 ca cc fa e5 3f f9 00 c6 ce fc 38 e1 3f
       0.6868652301414806 0.5382064856094352
0001b0 d5 41 b6 ab 7a b7 d1 3f cc 2d 45 0c 54 43 ae 3f
       0.2768236805796083 0.0591074242571171
0001c0 b4 11 66 4e 24 4e a1 3f b7 aa 6a ef bc e2 bc 3f
       0.033799299783854236 0.11283474774487955
0001d0 de 8a 95 69 a2 6d cb 3f 82 f2 12 0c a7 3a d4 3f
       0.21428327708698353 0.3160798662100107
0001e0 07 04 79 78 93 af d4 3f cc 6c c4 ef 26 6c cb 3f
       0.32321631207383955 0.21423804004084557
0001f0 b5 d7 19 45 b6 bf 90 3f e0 5d fd d3 52 5d c2 bf
       0.016356323211276187 -0.14347300864277113
000200 c2 db cd 39 2f e8 ce bf 93 fd 57 51 d5 f6 c9 bf
       -0.24146070787875656 -0.20284525367604242
000210 74 dd f5 e7 e5 eb ad bf 9e 57 85 1b 0f 7f b1 3f
       -0.058440384450416355 0.06834501668831058
000220 fa 0f 0e c0 4a b5 c1 3f b3 1c a8 c0 b4 cb b8 3f
       0.1383450925605983 0.09685830787212772
000230 da 9c b3 01 af cd a6 bf b8 fc a5 7c d1 da d1 bf
       -0.04453799148341782 -0.27898060963338933
000240 ba d9 87 88 cc 91 db bf 9c a6 77 8c c8 3f dc bf
       -0.4307738622004781 -0.4413930293800179
000250 9a bb 7c 08 f4 47 d6 bf f9 cd c5 46 87 75 cc bf
       -0.34814167813140673 -0.2223366828508089
000260 f1 2f 55 bc bf f7 c1 bf c3 80 52 20 d0 86 c3 bf
       -0.14037319847045596 -0.1525516660522098
000270 58 8f 07 2d e0 dd d3 bf 13 d4 cc f7 26 69 df bf
       -0.3104172172299875 -0.4907929820940932
000280 dc 68 a9 c9 a5 3c e5 bf 0d fc b7 74 23 b6 e6 bf
       -0.6636532725053956 -0.7097337035810384
000290 35 10 23 1c 8a 08 e4 bf 67 38 a6 4b 95 fb dc bf
       -0.6260424184370154 -0.45285541904093524
0002a0 e7 83 6b 09 02 02 d1 bf 53 0a c3 bd 54 eb c9 bf
       -0.26574755592269955 -0.20249423280445686
0002b0 a0 8e b9 09 86 d8 d3 bf eb b2 ca e6 06 f9 e1 bf
       -0.3100905508965557 -0.5616487987186621
0002c0 a9 dc 23 7a 33 17 e9 bf bc 5a d3 43 44 a3 ec bf
       -0.7840821633862066 -0.8949300121992887
0002d0 3a ea 1a 39 5b f4 eb bf 02 9c a0 1e c2 fb e7 bf
       -0.873578654798002 -0.7494822118941331
0002e0 00 1a 05 a9 16 42 e2 bf 57 40 19 15 18 1e e0 bf
       -0.5705674458666294 -0.5036735927660726
0002f0 6e 53 e6 15 6e c1 e1 bf f0 1d db 5a 99 f5 e6 bf
       -0.5548620631912919 -0.7174803518800541
000300 17 25 f2 2b 8e 87 ec bf 93 7d 4b 7e 68 ba f0 bf
       -0.8915472849195422 -1.0455098088640156
000310 3f 47 a2 ac 58 9e f0 bf 27 d3 de 0e d9 fe ec bf
       -1.0386587852012352 -0.9061093607366261
000320 a7 ee 5c 8b 4a 07 e5 bf 18 e7 47 be b1 c4 e0 bf
       -0.6571400377210538 -0.5240105358527414
000330 9c 0d 05 9a e2 74 e1 bf 90 9c 82 a2 dc cf e6 bf
       -0.5455182083318735 -0.7128737615611431
000340 10 8e 4e 24 4f 68 ec bf e8 89 cc c0 56 51 ef bf
       -0.8877330502622858 -0.978679062424189
000350 24 6c 49 aa 63 5a f0 bf 98 8f cb 31 92 c3 ed bf
       -1.0220677043751119 -0.9301234219133105
000360 87 86 fe ca e2 31 e7 bf 68 0e bb b9 52 a5 e1 bf
       -0.7248395886164908 -0.5514310481598388
000370 c7 2f 77 08 af 42 df bf 13 79 cd 03 78 fa e2 bf
       -0.4884450514480218 -0.5930748056669323
000380 d3 63 30 11 c2 ce e9 bf 95 df 70 2f 1d 4d ef bf
       -0.8064890228007421 -0.9781633307056717
000390 32 f1 13 8c 0e be f0 bf 3f bb ca d6 5c 07 f0 bf
       -1.0464005920212682 -1.0017975225743638
0003a0 16 c7 b0 3e 40 15 eb bf 4c c8 de bd a7 ab e6 bf
       -0.8463441109108512 -0.7084540089038085
0003b0 14 79 67 bf c3 a9 e4 bf 14 76 93 df 5e d2 e6 bf
       -0.645723222576438 -0.7131800047606611
0003c0 06 2c 31 dd b8 89 ed bf e6 cb 20 1b a2 04 f2 bf
       -0.9230617828519605 -1.1261311587993474
0003d0 1f 5b 0e 41 2d 8c f4 bf 5e 13 67 10 70 e1 f4 bf
       -1.2842228451970141 -1.3050385132530304
0003e0 e8 98 cc d9 b5 ef f2 bf c0 3d 9b 76 35 f1 ef bf
       -1.1835230357915467 -0.9981944386035408
0003f0 5b 1b 14 e5 b1 74 ec bf 40 73 c3 c4 f4 e3 ec bf
       -0.8892449831190378 -0.9028266757046381
000400 b4 4b f5 62 e8 d0 f0 bf 3a b0 d9 a3 2a 40 f4 bf
       -1.051002871089378 -1.2656656647113906
000410 d8 37 48 63 59 60 f7 bf e9 b7 e8 da cb 94 f8 bf
       -1.461022746868812 -1.536327223886014
000420 ff 90 4c 91 16 35 f7 bf 0d 5d 36 2a ab e0 f3 bf
       -1.4504609752412418 -1.2423507355613908
000430 15 88 3c ce 3d 1f f1 bf 44 95 91 f1 ae 3c f0 bf
       -1.0701273017989525 -1.014815276744529
000440 c4 82 26 88 7f 9b f1 bf 42 19 dc 29 fe c9 f4 bf
       -1.1004634207130701 -1.2993146548411265
000450 c2 69 88 ab c0 e8 f7 bf 18 a8 19 ef 7f 52 f9 bf
       -1.4943243694784631 -1.5826415386059178
000460 88 39 bf dd 44 4c f8 bf ad c6 ba aa 00 94 f5 bf
       -1.5186203634253577 -1.3486334485173004
000470 11 7c 1d bf 2a b7 f2 bf 52 5d 91 64 9c 1a f1 bf
       -1.169718500655794 -1.0689968040877216
000480 34 47 c8 de 18 2c f2 bf ba f7 c2 f5 55 05 f5 bf
       -1.1357659056124705 -1.3138026809751708
000490 4b 93 19 78 a2 ca f8 bf a6 16 cb 1f 68 43 fb bf
       -1.5494713488962641 -1.7039567224432317
0004a0 1d f0 1b 6d 7f ee fb bf 3a 60 aa 2c 3a a6 f9 bf
       -1.7457269918513767 -1.6030828232524201
0004b0 ae 77 6a 4e 6d d2 f6 bf 49 24 51 05 7e c8 f4 bf
       -1.4263737738724376 -1.2989483077710864
0004c0 77 6b b6 95 3e 21 f5 bf 9d a1 03 4d 0e 8f f7 bf
       -1.320616326155429 -1.472425747715625
0004d0 86 7f 77 8d bd 24 fb bf 90 67 79 78 ec 44 fe bf
       -1.6964698339506596 -1.8918270784401763
0004e0 5f f5 73 3c 98 40 ff bf 7c 91 4b 61 0c bd fd bf
       -1.9532701837009296 -1.8586543846696193
0004f0 28 17 5d 7d 30 9b fb bf ad 2c dd 04 21 a8 f9 bf
       -1.7253880402581192 -1.6035471143721154
000500 ea b2 6c fa e6 fc f8 bf bb b1 33 e3 9e ab fa bf
       -1.561743715497125 -1.6668995738101404
000510 ec bf 50 ab 36 f7 fd bf 11 e7 b6 39 67 a1 00 c0
       -1.8728548709877897 -2.07881016816544
000520 75 66 1a 2e c3 78 01 c0 9b 29 e2 28 26 23 01 c0
       -2.1839660264784535 -2.1421626276034664
000530 46 78 3c 02 59 ca ff bf e6 93 d9 ea cd 02 fd bf
       -1.9869012915946924 -1.8131846593689658
000540 7f e1 f5 69 c6 9d fb bf ba 49 ce a4 32 89 fc bf
       -1.726019300373167 -1.7834955632903147
000550 ac cd 15 53 dd 71 ff bf 71 e7 53 30 43 78 01 c0
       -1.9652989621653019 -2.183721902428197
000560 e3 b6 d2 b2 4f a6 02 c0 82 78 35 65 8d b5 02 c0
       -2.3312067003779346 -2.33864859647207
000570 a4 7e 2d 41 ed b3 01 c0 33 41 23 6a 49 43 00 c0
       -2.212854870987785 -2.032854870987785
000580 bd 8e 36 8c 52 83 fe bf fe 11 fc f0 cd a1 fe bf
       -1.9070611455035043 -1.9145030415976403
000590 72 d8 fc 7a f3 7e 00 c0 0f d9 c5 01 48 3e 02 c0
       -2.0619878395473785 -2.2804107798102744
0005a0 0f 9b e9 58 9d b2 03 c0 24 cf 55 76 53 28 04 c0
       -2.4622141786852647 -2.5196904416024086
0005b0 f5 f5 e3 b5 cf 75 03 c0 c6 83 32 2a 0a 12 02 c0
       -2.432525082606612 -2.2588084503808856
0005c0 52 96 6e 82 10 d4 00 c0 6d 59 36 7d 73 7e 00 c0
       -2.1035471143721134 -2.0617437154971214
0005d0 d2 d8 99 71 cf 55 01 c0 e9 5f a8 55 9b fb 02 c0
       -2.1668995738101353 -2.372854870987784
0005e0 06 e7 b6 39 67 a1 04 c0 6d 66 1a 2e c3 78 05 c0
       -2.578810168165435 -2.68396602647845
0005f0 8a 29 e2 28 26 23 05 c0 11 3c 1e 81 2c e5 03 c0
       -2.642162627603459 -2.4869012915946844
000600 e5 c9 6c f5 66 81 02 c0 b4 f0 fa 34 e3 ce 01 c0
       -2.3131846593689596 -2.226019300373162
000610 d4 24 67 52 99 44 02 c0 d2 e6 8a a9 ee b8 03 c0
       -2.2834955632903107 -2.4652989621653
000620 6e e7 53 30 43 78 05 c0 d9 b6 d2 b2 4f a6 06 c0
       -2.6837219024281955 -2.83120670037793
000630 7b 78 35 65 8d b5 06 c0 9f 7e 2d 41 ed b3 05 c0
       -2.838648596472067 -2.712854870987783
000640 2e 41 23 6a 49 43 04 c0
       -2.5328548709877827
