data_ground_truth/mu_theta.npy (npy, 1736 bytes, 1 tensors)

array f8 [1, 201]
0	0x3ff921fb54442d18	1.5707963267948966
1	0x3ffb253b9c5420c8	1.6965900522791788
2	0x3ffb06c0378e9d81	1.6891481561850414
3	0x3ff8aaa73290fe9c	1.5416633582353034
4	0x3ff52bfe24fefd63	1.3232404179724078
5	0x3ff2435376b77966	1.1414370190974181
6	0x3ff157e73bdf1138	1.0839607561802733
7	0x3ff2bceebcc2c3a2	1.1711261151760728
8	0x3ff58479d425a800	1.344842747401799
9	0x3ff8006d23ad82ea	1.5001040834105717
10	0x3ff8aba72e1dfca9	1.5419074822855612
11	0x3ff6fcef4556fddc	1.4367516239725466
12	0x3ff3b1577d39efa6	1.2307963267948963
13	0x3ff065bfb51ce170	1.0248410296172459
14	0x3fed6e0f98abc546	0.9196851713042313
15	0x3feec483ad8cb8c3	0.9614885701792207
16	0x3ff1de35264e374c	1.1167499061879935
17	0x3ff4a5c03db11baa	1.2904665384137197
18	0x3ff60ac7be94ce14	1.3776318974095192
19	0x3ff51f5b83bc65e5	1.3201556344923742
20	0x3ff236b0d574e1e9	1.1383522356173847
21	0x3fed700f8fc5c161	0.9199292953544892
22	0x3fe8b7dd85ca839a	0.7724444974047515
23	0x3fe87ae6bc3f7d0e	0.7650026013106144
24	0x3fec81674c5f6473	0.8907963267948972
25	0x3ff121fb54442d1b	1.0707963267948972
26	0x3ff3253b9c5420cc	1.1965900522791797
27	0x3ff306c0378e9d84	1.189148156185042
28	0x3ff0aaa73290fe9f	1.041663358235304
29	0x3fea57fc49fdfacc	0.8232404179724084
30	0x3fe486a6ed6ef2d2	0.6414370190974188
31	0x3fe2afce77be2272	0.5839607561802735
32	0x3fe579dd79858747	0.6711261151760731
33	0x3feb08f3a84b5004	0.8448427474017994
34	0x3ff0006d23ad82eb	1.0001040834105719
35	0x3ff0aba72e1dfcab	1.0419074822855616
36	0x3fedf9de8aadfbbf	0.9367516239725474
37	0x3fe762aefa73df53	0.730796326794897
38	0x3fe0cb7f6a39c2e8	0.5248410296172468
39	0x3fdadc1f31578aa6	0.4196851713042328
40	0x3fdd89075b19719d	0.461488570179222
41	0x3fe3bc6a4c9c6ea4	0.6167499061879949
42	0x3fe94b807b623760	0.790466538413721
43	0x3fec158f7d299c32	0.8776318974095203
44	0x3fea3eb70778cbd0	0.8201556344923748
45	0x3fe449c8da7f3caf	0.6340069072265545
46	0x3fdc3215ed760ee4	0.4405569857556044
47	0x3fcba03ec8b78116	0.21582779694200188
48	0x3fc784af61f04bc8	0.18373672754441217
49	0x3fd4cdaeecf5b719	0.32505391255004806
50	0x3fe0c4a1ef09c847	0.5240029972758372
51	0x3fe4be0b8f038f03	0.6481988709678891
52	0x3fe4dfe9238899e7	0.652332848931846
53	0x3fe1061f40041532	0.5319973230659001
54	0x3fd0510c0d937d2e	0.2549467213229545
55	0x3fa69b4ef9aab2ec	0.044153659798530004
56	0x3f61399bb4977818	0.0021026650544930907
57	0x3fb8b85b3835054d	0.09656305429691266
58	0x3fca3bbcebf67374	0.2049480583345048
59	0x3fd24410dc01be4a	0.2854044102195742
60	0x3fd409937ca42f4b	0.3130844800186778
61	0x3fc9b000b33f3734	0.200683677218359
62	0x3f897c412c209ff7	0.012444028052485108
63	0xbfc31128025332eb	-0.14896106828236752
64	0xbfd0eb5da947d6e1	-0.26436559230147166
65	0xbfcc490fdb0ce82f	-0.22097967334576782
66	0xbfb402df3da33d51	-0.07816882376504465
67	0x3fb97d9b1fbcbf09	0.09957284474216634
68	0x3fc41521bfa8c584	0.1568948922954797
69	0x3fbc054c6f0b24cc	0.10945584975265205
70	0xbfa584f819594451	-0.04203009900505406
71	0xbfd260d0bc05a5a3	-0.2871591411736409
72	0xbfdc163a59bc3fbf	-0.43885668528764293
73	0xbfdde0ebc5588fce	-0.4668530871588218
74	0xbfd72a071a66cb84	-0.3619401700809066
75	0xbfcd4251245209dd	-0.22858633302173717
76	0xbfbdf0dd2b6dad4a	-0.11695654211296361
77	0xbfc1de4d5f5367bb	-0.13959662584858087
78	0xbfd4367139d2b6b4	-0.31582289358889715
79	0xbfe08656efad1609	-0.5163988763021631
80	0xbfe606a2d7873d16	-0.6883100709473264
81	0xbfe772a92dc838b4	-0.7327466863805712
82	0xbfe4c85f80927b54	-0.6494596015144034
83	0xbfdcfe34173869c3	-0.4530153490792623
84	0xbfd11cd5bfea2346	-0.2673849462667487
85	0xbfcb1b2f26f3a045	-0.211767095584266
86	0xbfd4fca59004fdb3	-0.3279203325691597
87	0xbfe27140b7023150	-0.5763248037706408
88	0xbfe99a27211dac81	-0.8000674864573655
89	0xbfedd3a63369d906	-0.9320860866708081
90	0xbfecc2756a9eda15	-0.8987376291686952
91	0xbfe77ad86a547b16	-0.7337457730062364
92	0xbfe2bcfd773b7eec	-0.585570080638687
93	0xbfe11ec9171f188b	-0.5350079967108895
94	0xbfe2eed6f65e081f	-0.591655236421733
95	0xbfe77b7686e683a5	-0.7338211664938298
96	0xbfed5f6d817f0f2c	-0.9178988961434462
97	0xbff0a494e8350ebd	-1.0401810713382666
98	0xbff060126071b053	-1.0234550254199533
99	0xbfecde966a12526b	-0.902171332522426
100	0xbfe5bb7a6899f7f1	-0.6791355174061647
101	0xbfe109cd55a01f54	-0.5324465439198129
102	0xbfe0c231442ef85c	-0.523705132647375
103	0xbfe675a1bddfc9b9	-0.7018593510131758
104	0xbfebf7a052609933	-0.8739778145725609
105	0xbfefe9a1812a0c22	-0.99726939418213
106	0xbff05760f3ea4018	-1.021332695763709
107	0xbfed7119fcb5840b	-0.9200563369487339
108	0xbfe6ca474f45e505	-0.7121922062207494
109	0xbfe1e8e944e2689d	-0.5596815438650712
110	0xbfe06fe261411287	-0.5136577510352972
111	0xbfe331c63837dd9b	-0.5998259637844287
112	0xbfe9475c577ff2d1	-0.7899610241871305
113	0xbfef457bc19f9a75	-0.97723186318474
114	0xbff0f5109b4bc688	-1.0598302904367376
115	0xbff00c900b051f06	-1.0030670576542788
116	0xbfeb0351a62db6e9	-0.8441551442790259
117	0xbfe66c9b0ebec729	-0.700757530974646
118	0xbfe486b0c9b73f44	-0.6414417209398171
119	0xbfe6a58e6c31393e	-0.7077095139627898
120	0xbfed2be94a13347f	-0.9116102644708376
121	0xbff1a0b1df276917	-1.1017321316672388
122	0xbff49699df51f8a4	-1.2867678378529854
123	0xbff4f54d01469ee9	-1.3098878908003206
124	0xbff3155d8d795833	-1.1927161718681532
125	0xbff01a3635deac18	-1.0063993553437793
126	0xbfec85be64f302d4	-0.8913261386552116
127	0xbfecba0b775c3e4e	-0.8977105456596719
128	0xbff079761bdad27f	-1.0296536529614568
129	0xbff3b7bcc0b68bf3	-1.2323577430586254
130	0xbff71f65aedf09a7	-1.4451653319270947
131	0xbff80b793e142ee8	-1.5028011727289883
132	0xbff6bb2477372722	-1.420689073262516
133	0xbff41bdad9d6040d	-1.2568005093783114
134	0xbff142e74cb1d55e	-1.07883386572697
135	0xbff02af5256125c2	-1.0104876957069426
136	0xbff1d40bbc58d9da	-1.1142690045650085
137	0xbff534c074c6ce9f	-1.3253788529954489
138	0xbff872efec02d7e2	-1.5280608386215069
139	0xbff94b0be24b7707	-1.5808218803062475
140	0xbff8481b73aff142	-1.5176043051752264
141	0xbff52dc5f135e60d	-1.3236751005446223
142	0xbff2663ebeeefaa4	-1.149962182840377
143	0xbff0dc1c7e75a808	-1.0537381114795625
144	0xbff1a9ad87366de2	-1.103925254987978
145	0xbff4bd3b58b9c8b9	-1.2961991754387283
146	0xbff8bcd4ca850f8e	-1.5461013709000073
147	0xbffb3ef8c3b30c35	-1.7028739590175637
148	0xbffb9d4576c94275	-1.7258963241657999
149	0xbffa1106e7ba939f	-1.629156975928005
150	0xbff72b725add6484	-1.448107104244884
151	0xbff49dbc59610a02	-1.2885097018594256
152	0xbff4ea448993bfdd	-1.3071942686183242
153	0xbff6d8f769948bf5	-1.4279703258732728
154	0xbffa9f0e952ec7f7	-1.663832266564439
155	0xbffe9f4edbb19304	-1.913893564394301
156	0xc0003569ef311038	-2.0260809599731395
157	0xbfff294f6d34e348	-1.9475855127222577
158	0xbffc089228ef66c0	-1.7520925139455557
159	0xbff9748be953a743	-1.5909537424399367
160	0xbff8c951dee32d80	-1.5491503435649463
161	0xbffa7809c7aa2c51	-1.6543062018779617
162	0xbffdc3a18fc73a82	-1.860261499055611
163	0xc000879cabf2245c	-2.0662167962332614
164	0xc0015ef8a055a3c0	-2.171372654546275
165	0xc001095b9b1d66e6	-2.1295692556712877
166	0xbfff96c3e6b2f2dc	-1.9743079196625137
167	0xbffccf38cf500e7c	-1.800591287436787
168	0xbffb6a314e6c5c15	-1.7134259284409883
169	0xbffc559d8944c450	-1.770902191358136
170	0xbfff3e48378c4842	-1.9527055902331232
171	0xc0015e78a28f24bc	-2.171128530496018
172	0xc0028c85250df42e	-2.318613328445756
173	0xc0029bc2d770b5cd	-2.3260552245398913
174	0xc0019a22b368bbef	-2.2002614990556064
175	0xc000297edc5e7e7e	-2.0202614990556063
176	0xbffe4fbd70ad0953	-1.8944677735713256
177	0xbffe6e38d5728c94	-1.9019096696654616
178	0xc0006528ed3815be	-2.0493944676152003
179	0xc002247d7401165b	-2.267817407878096
180	0xc00398d2cb24d85b	-2.4496208067530865
181	0xc0040e88e8910c70	-2.5070970696702304
182	0xc0035c05281f3341	-2.4199317106744336
183	0xc001f83f9c6dc112	-2.2462150784487074
184	0xc000ba45f4a9d39e	-2.090953742439935
185	0xc00064a8ef7196b9	-2.049150343564943
186	0xc0013c04e3d5161e	-2.154306201877957
187	0xc002e1d0c7e39d35	-2.3602614990556057
188	0xc004879cabf22452	-2.566216796233257
189	0xc0055ef8a055a3b9	-2.6713726545462717
190	0xc005095b9b1d66d6	-2.6295692556712806
191	0xc003cb61f359795d	-2.474307919662506
192	0xc002679c67a80731	-2.3005912874367813
193	0xc001b518a7362e00	-2.2134259284409836
194	0xc0022acec4a26220	-2.2709021913581324
195	0xc0039f241bc6241e	-2.452705590233122
196	0xc0055e78a28f24ba	-2.6711285304960173
197	0xc0068c85250df425	-2.818613328445752
198	0xc0069bc2d770b5c7	-2.8260552245398887
199	0xc0059a22b368bbeb	-2.7002614990556046
200	0xc004297edc5e7e7a	-2.5202614990556045
