data_ground_truth/theta_pos_true.npy (npy, 1736 bytes, 1 tensors)

array f8 [1, 201]
000000 18 2d 44 54 fb 21 f9 3f b4 f4 72 3a 85 bc fb 3f
       1.5707963267948966 1.7335254939237474
000010 d1 a0 c0 2f 96 1e fb 3f 50 11 f2 a8 6f 4e f8 3f
       1.694967447789214 1.5191494559704388
000020 98 7b a8 e7 c1 55 f3 3f 14 4c 86 7d c0 43 f1 3f
       1.2084368752618726 1.0790409949593185
000030 14 66 7f 92 45 81 f0 3f 70 12 a5 15 70 12 f1 3f
       1.0315604898991113 1.0670014234066478
000040 8b 68 69 be 49 7e f2 3f ac 92 f5 36 e8 2a f5 3f
       1.155832046314148 1.322975363430639
000050 8a 0f 61 c1 7e 16 f5 3f fb ce 0c 58 1c 28 f3 3f
       1.3179919771073139 1.197292655892794
000060 df 6e 21 52 fb 11 f1 3f 25 2e c0 fc 42 e4 eb 3f
       1.066890068838738 0.8716139732873144
000070 2a 70 e6 04 f5 d5 ec 3f 3b 83 c6 a2 7e 73 ed 3f
       0.9011178107934985 0.9203484706123172
000080 d1 8f c9 10 ec 99 f1 3f e6 18 e5 c1 08 ad f2 3f
       1.1000786453014266 1.1672446798343628
000090 16 71 cf 7b f7 d2 f3 3f 06 26 2c d4 b7 a9 f2 3f
       1.2390055500355337 1.1664350784288913
0000a0 59 97 7e 76 02 73 f1 3f ea a3 f6 56 28 92 e7 3f
       1.0905785206500325 0.7365915010933552
0000b0 72 90 43 ca a1 c9 e1 3f 2a 3c 9c 4a 39 9c e1 3f
       0.5558632803408854 0.550320287440518
0000c0 7c 2f c2 62 cc f0 e4 3f 05 89 ef 2b b6 5b e8 3f
       0.6543943337323834 0.7611952646368826
0000d0 6c 4a 7f 5c f8 82 ec 3f 15 2a d2 d8 47 7c ec 3f
       0.8909875685297499 0.8901709780487318
0000e0 78 86 91 4a 08 48 e7 3f 3a ee 4f ef 3d 33 df 3f
       0.7275430160918424 0.48750255937895626
0000f0 d8 af 61 eb d6 b3 d0 3f 98 c9 14 73 17 0d cc 3f
       0.2609765337608656 0.2191495239181449
000100 56 56 12 70 86 04 d6 3f 12 7d 76 dc 39 12 de 3f
       0.3440261930894385 0.46986242799353406
000110 7e 82 33 2c 27 6c e2 3f 45 66 8b 28 7b 5b e2 3f
       0.5757022727303391 0.5736671249280297
000120 04 55 10 b4 7f c3 df 3f d8 fb 35 6b f4 14 cb 3f
       0.49630730232577513 0.21157698855310403
000130 00 a4 27 2d 10 9f 9a bf 5f 03 74 d8 81 4f c8 bf
       -0.025997402912171452 -0.18992636746409183
000140 30 02 0c d2 69 19 c6 bf 6c 11 b9 70 c1 2e b3 bf
       -0.17265055423924158 -0.07493218423866715
000150 3e d9 61 1e cd 33 c8 3f f0 bd 0f e5 7d 4b d1 3f
       0.1890808485365571 0.27023265237127614
000160 3c 75 ee b5 5e 63 d0 3f 78 d0 35 b2 3f c9 c0 3f
       0.2560650612520765 0.13114162637396354
000170 28 44 43 41 12 91 c5 bf 96 ad db 7a 1d 45 ce bf
       -0.16848972498567716 -0.2364842271702911
000180 dc 9b 07 4a 67 53 cf bf 92 51 3a c2 19 75 c5 bf
       -0.24473277201397436 -0.16763612731723448
000190 00 4e d5 16 e4 6e 7e 3f 5f 1c 34 91 2d 12 c2 3f
       0.0074299726232598395 0.14117974843995548
0001a0 b7 0b ff f5 7a 77 c4 3f c0 8c 6a 60 44 bc 99 3f
       0.15989624988114112 0.02513224447706075
0001b0 c2 ec c1 20 46 41 cf bf c8 56 9e c4 4c d7 d3 bf
       -0.24417950248230197 -0.31001586152102023
0001c0 64 e2 4a 77 16 cc d6 bf 6d 4c 5a 72 4e e3 d0 bf
       -0.35620652818355425 -0.2638736836171976
0001d0 76 b2 1f 96 ad d6 c2 bf 50 33 8f 83 a9 e0 8e 3f
       -0.1471764548326921 0.015076946570752675
0001e0 fa 91 e8 f2 c8 5f ac 3f b0 56 85 7e a3 37 a9 bf
       0.05541828122321486 -0.04925261420673388
0001f0 c7 bc 8e 06 b3 36 d0 bf 68 01 db cc 5f 91 d6 bf
       -0.2533385814703703 -0.3526229382078072
000200 6e 84 3e 02 79 1a df bf a4 39 c7 ef f3 df db bf
       -0.48599076480065306 -0.4355439988693439
000210 41 6c 04 c0 09 f7 d1 bf 4c 82 6b 9d 6c 26 bd bf
       -0.28070300819098654 -0.11386755793820064
000220 e4 ae b6 0d fa b6 98 bf 41 fc 45 c3 a6 11 b6 bf
       -0.024135500990879147 -0.08620683925072205
000230 ce c7 e1 ad e1 5a d6 bf fb 68 f8 ed 14 6e e0 bf
       -0.3492969701829879 -0.5134377143724856
000240 c5 4f da 26 fe 7c e3 bf 35 ce 9c cf 6f cc e3 bf
       -0.6090079077571252 -0.6187056593830166
000250 58 95 57 91 6e 3c dd bf a8 7d 2e e4 af 20 d2 bf
       -0.45681347077910095 -0.2832450607620225
000260 52 c7 58 64 a8 5b c1 bf c9 15 58 a6 a1 a3 c0 bf
       -0.13560967349763559 -0.12999363538999223
000270 54 35 14 ba ae cb d6 bf bb 56 ce da 60 43 e2 bf
       -0.35618179485102996 -0.5707248948626423
000280 85 72 0c 02 cf 7d e7 bf b2 2e b9 18 77 65 e8 bf
       -0.7341074981701047 -0.7623858912351891
000290 70 64 c8 7b 55 de e4 bf 4c fe 4a ff 56 32 dc bf
       -0.6521403710968467 -0.44057249957038347
0002a0 9c 59 af 9a a9 c3 d2 bf da b7 f5 9f 8b 56 cf bf
       -0.29319229227021437 -0.244828656297101
0002b0 83 f3 55 df c1 24 d5 bf c6 7b 84 9f 45 d0 e2 bf
       -0.33036848840838945 -0.587923823888439
0002c0 0c a2 41 84 49 06 e8 bf ef f5 04 de 68 58 e9 bf
       -0.7507674773342514 -0.7920421921077699
0002d0 27 0a a1 8d 9b 55 e8 bf 39 fd e7 c9 8c 23 e1 bf
       -0.7604501501267052 -0.5355895942192667
0002e0 7f d8 d3 26 38 c0 dd bf 4c f4 ed a6 13 e3 d7 bf
       -0.46485713760137765 -0.37323466588697296
0002f0 a0 5e 0a 90 f7 12 db bf a5 f4 e2 2d 06 4c e4 bf
       -0.4230326563497133 -0.6342802902433006
000300 46 a6 a3 6a 16 33 ef bf 16 19 49 51 e8 18 f2 bf
       -0.9749862749860732 -1.1310809302536362
000310 77 69 b7 c2 41 22 f2 bf df 8c 02 d7 be 61 f0 bf
       -1.1333634954558798 -1.0238636397196428
000320 66 1d 79 7f 04 19 ec bf 1a 8b 9a 69 26 34 e7 bf
       -0.8780539025982932 -0.7251159727642034
000330 31 1b 11 ee b5 1b e8 bf c3 e5 d3 de 19 45 ed bf
       -0.7533826493971444 -0.9146851875404355
000340 68 81 55 e6 ce 4e f0 bf 70 d7 d6 c7 57 2c f3 bf
       -1.019240283720217 -1.1983259016246528
000350 c7 bb bb 00 d6 42 f3 bf fe 5b 1a 98 97 28 f1 bf
       -1.203817370285593 -1.0724101964494817
000360 2c e7 ee 51 72 f2 eb bf 70 cc 25 4f 8e 76 e8 bf
       -0.8733455276735405 -0.7644721551754525
000370 ca e6 72 a9 a4 ba e6 bf ce 5c d2 71 83 7e ea bf
       -0.7102835950419941 -0.8279435370522152
000380 cc 86 39 ed c7 b3 f1 bf b6 a1 17 8d 74 01 f6 bf
       -1.106391836794887 -1.3753552924555215
000390 b8 31 b7 28 12 2c f7 bf 62 81 a1 8e 06 38 f6 bf
       -1.448259505315134 -1.3886781283873337
0003a0 20 2d ba 0c 67 60 f4 bf 4f 81 da f4 86 98 f0 bf
       -1.2735357758672947 -1.0372380795088991
0003b0 1f 0b 8a 22 47 1e ee bf 10 11 65 52 ec 51 f0 bf
       -0.9411960291475657 -1.0200007647081897
0003c0 d6 a0 4a 7c d6 e7 f3 bf dc 11 c8 ee d9 cf f7 bf
       -1.2441010337006921 -1.4882449462321494
0003d0 26 11 df c7 b9 a3 fa bf fa b3 86 fa b0 c5 fa bf
       -1.6649720962023564 -1.6732644830874492
0003e0 59 73 43 74 31 5e f8 bf 3c 39 f6 e5 3a 4c f4 bf
       -1.5229963819067136 -1.2686108572848545
0003f0 07 a6 47 fa 78 6b f1 bf a2 47 9a e3 54 7c f1 bf
       -1.088738420158167 -1.0928543940285427
000400 a1 05 12 3b 51 0d f3 bf b8 01 4f 14 91 ec f6 bf
       -1.190751295799011 -1.4327555459313839
000410 ca c9 44 a6 b4 8b f9 bf 80 fd 4a 6b ff e7 fa bf
       -1.5966078276511433 -1.681640071022997
000420 02 c6 64 38 20 f5 f8 bf d4 d7 71 ab 73 2e f6 bf
       -1.5598451807858287 -1.3863407799776626
000430 b7 80 1c f0 e8 74 f3 bf bb be 67 1b 38 44 f3 bf
       -1.216042459425848 -1.2041550703542458
000440 41 24 ee fd e1 ee f4 bf 3e 28 4b 6f 7d 75 f6 bf
       -1.3083209914350535 -1.403684077015455
000450 08 b8 c0 04 85 9a f8 bf af 33 19 38 ee bb fa bf
       -1.537724512639672 -1.6708814803452972
000460 b6 41 b4 b4 98 46 fa bf 26 4c f9 a6 96 75 f8 bf
       -1.6422354754214274 -1.528708126298406
000470 6b 97 7e 1d 94 73 f6 bf 75 bd 08 c9 3f bd f5 bf
       -1.4032174255493952 -1.3587034085174683
000480 dc 26 c5 57 fb e9 f6 bf ce 7f 71 42 ef 0d f9 bf
       -1.4321244648476101 -1.565902003807412
000490 16 06 1b eb 8e 8d fb bf ec d8 75 cb e3 20 fd bf
       -1.7220601257143975 -1.8205297420186595
0004a0 bb 83 14 41 4e 92 fc bf ba 6e 4f 4a 38 31 fb bf
       -1.7857191602890754 -1.6995165732140962
0004b0 bc 92 d0 00 1b c1 f7 bf d6 38 b0 0b 41 e7 f5 bf
       -1.4846448928666822 -1.3689585167481275
0004c0 07 c3 d5 cf f6 03 f6 bf 65 fe 67 a1 3d f1 f8 bf
       -1.3759678000025717 -1.5588966660433468
0004d0 14 86 52 39 3e f2 fb bf 22 1d a6 a4 b6 48 fe bf
       -1.7466413726000427 -1.8927523070904688
0004e0 1e 2c 2f 82 48 77 fe bf 7e 18 ea ed 08 07 fc bf
       -1.9041218838999678 -1.7517175000698724
0004f0 42 68 c7 6c 3d 31 f8 bf 95 79 08 ee 0c 8d f5 bf
       -1.5120214699914105 -1.3469361589592144
000500 39 64 34 e0 f6 47 f4 bf 14 e1 85 d3 72 fe f6 bf
       -1.2675694234842594 -1.4371212256065222
000510 af 6f d5 6b 23 ac f8 bf c2 4b ed 46 6b 71 fd bf
       -1.5420259678130426 -1.8401901980002866
000520 7f 63 a1 9a bc 3a ff bf 09 9c c0 c2 b0 50 fe bf
       -1.9518400230647044 -1.8946998221888427
000530 59 b2 cc f4 db 3c fb bf f8 24 b4 c7 5b 9a f8 bf
       -1.7023582041248544 -1.5376851845670085
000540 2d f2 f2 29 bb f6 f6 bf ce 86 95 a8 8a 4d f7 bf
       -1.4352370871193998 -1.4564310632053323
000550 5f 54 ab 99 36 2d fa bf 1a ba 1e 41 9b 9e fd bf
       -1.636038399000675 -1.8512222808600485
000560 10 54 df 57 e5 ba ff bf db 5e 11 6a 2f de ff bf
       -1.9831288750185685 -1.9917444365764172
000570 c4 12 24 d0 27 53 fd bf 39 10 97 fb d3 42 fa bf
       -1.8328016405586576 -1.641315443776888
000580 1c be 6e d7 a3 e4 f9 bf 5b f8 92 48 e5 f2 f9 bf
       -1.6183203139625055 -1.6218006930280555
000590 0a 5b a0 fd 81 9a fc bf 59 66 ab e7 e7 3e 00 c0
       -1.7877216250687433 -2.030715761106688
0005a0 9b d2 dd af 77 52 01 c0 2c 79 17 a8 d7 a6 01 c0
       -2.1652673472947987 -2.2064660198367587
0005b0 d6 5c 1d d9 e9 d5 00 c0 98 dd 3a 2f d2 14 ff bf
       -2.104449936112 -1.9425832600516966
0005c0 8d 15 84 a6 de 73 fb bf 79 d3 c4 8a a3 e2 fa bf
       -1.7157885078935096 -1.6803317471178316
0005d0 b7 91 8e e5 3a dd fb bf 32 d1 ac c8 f4 74 00 c0
       -1.7415112464014848 -2.0571075132121672
0005e0 a8 9d e3 c6 ce e5 01 c0 01 f0 7c 7c 4c d8 02 c0
       -2.2372108019078105 -2.355614636004248
0005f0 99 97 d5 93 f5 80 02 c0 da 9a 7f 4c 83 d9 01 c0
       -2.3129684018667374 -2.231207463878815
000600 ae 2e d7 d0 bb 59 01 c0 4f 6a c7 9c bd a2 00 c0
       -2.1688152614277305 -2.079463219485923
000610 32 a8 1c 01 c4 0b 01 c0 31 33 24 54 3e 59 03 c0
       -2.1307449423666407 -2.418575913767562
000620 30 86 f2 b4 54 25 06 c0 3f fe f3 09 fa 97 06 c0
       -2.768227971698046 -2.8242073800645637
000630 e4 1b 72 de 9c 8a 06 c0 a8 d8 af 00 3a bd 05 c0
       -2.8176820162366187 -2.7173957875885044
000640 37 d3 5e c9 4d ed 04 c0
       -2.615871022421199
