data_ground_truth/theta_pos_true.npy (npy, 1736 bytes, 1 tensors)

array f8 [1, 201]
000000 18 2d 44 54 fb 21 f9 3f 65 40 47 b9 cf c2 fa 3f
       1.5707963267948966 1.6725613820490477
000010 6b 30 22 48 ab 44 fa 3f 3e 1e dd f4 be b4 f7 3f
       1.6417649095265243 1.4816274228086423
000020 68 9d 0b 5c 46 d5 f1 3f d4 43 1b 66 2d cc ee 3f
       1.1145690532228745 0.962423991610303
000030 42 99 70 df 80 f5 ec 3f 39 2c 8e 85 7f 63 ee 3f
       0.9049686779078814 0.9496457680228395
000040 17 db a9 ee 0f 55 f1 3f a0 10 79 64 72 ac f3 3f
       1.0832671473305646 1.229601280662827
000050 1b 1e 98 04 10 69 f4 3f 78 ef 79 c6 a9 91 f2 3f
       1.275650041528826 1.1605623009663457
000060 36 21 d0 87 42 31 ee 3f 2c d6 f3 de 07 f1 e7 3f
       0.9435131695363796 0.7481726984539754
000070 fd 8e 5d fb 32 c8 e5 3f 7e 0c 73 95 d3 9c e6 3f
       0.6806883725625706 0.7066438597615983
000080 9d 94 a1 f1 02 1d ea 3f 94 9d d3 0b 64 d6 ee 3f
       0.8160414428099504 0.9636707526196227
000090 3c 3e ee 42 bb 1d f1 3f c0 8d 4c 08 56 2c f0 3f
       1.069758664558221 1.0108242344075364
0000a0 d4 c7 2a 2d 37 84 e8 3f f0 ec 18 65 58 c7 e1 3f
       0.7661395914240026 0.5555841421659391
0000b0 06 37 76 4f a0 7a de 3f 4c b4 59 b8 0a e9 dd 3f
       0.4762345100397031 0.46734874728173703
0000c0 60 bc 82 7e a1 3c e4 3f 71 e5 a9 e2 b3 ac eb 3f
       0.6324012251769879 0.86483186979528
0000d0 cb 71 27 b1 fb 7d ed 3f a4 c6 27 64 18 9f ed 3f
       0.9216288051643969 0.9256708103332199
0000e0 c9 37 ed b3 f3 38 ea 3f a3 f2 e3 01 dd b3 e4 3f
       0.8194521440689125 0.6469559704706466
0000f0 7e 0f af ed b3 d6 de 3f a2 ad 68 d0 08 f0 da 3f
       0.4818544217234758 0.4209005389445456
000100 a2 47 dc 6d ac af e0 3f 5d 66 bc c4 b0 6d e9 3f
       0.5214445253097788 0.7946399538515824
000110 8f f6 4e 77 d9 d2 ee 3f 6c 7b c5 9a c9 c2 ef 3f
       0.9632384615176351 0.9925277731780233
000120 9e 62 4d 45 d1 0b ec 3f bb 88 8e d9 2c 06 e4 3f
       0.8764425614891314 0.6257538079410304
000130 f5 66 34 45 58 e9 d8 3f 0f 48 6f 3e e6 13 ce 3f
       0.3892422366931066 0.23498228119439132
000140 8e 93 55 77 26 6c d2 3f 88 f5 fc e2 dc db e0 3f
       0.2878509679197173 0.5268387254106282
000150 8e 76 4d 3f 03 13 e6 3f 4e 4b 4c 6c ec 07 e9 3f
       0.6898208843592373 0.7822172274776251
000160 b8 a4 31 ec fc 7c e6 3f 00 05 3b 46 41 fc e3 3f
       0.7027573216593259 0.6245428439798673
000170 0a b8 f6 8a ec 3f dc 3f 65 59 45 1b 8a 53 cb 3f
       0.4414016110484914 0.21348692256533322
000180 a2 1d 6b b2 09 0c c9 3f 0e 30 83 01 a4 ff d6 3f
       0.19567986690365752 0.35935306689930335
000190 bf b9 b9 a1 15 02 e1 3f 26 b1 a0 e0 d9 4d e6 3f
       0.5315044554425227 0.6970033061275316
0001a0 27 72 b1 17 32 ae e6 3f 49 4c 01 88 b0 d5 e0 3f
       0.7087641203648375 0.5260851532315282
0001b0 64 db cf ab 9d 9a cb 3f 70 55 25 72 63 9e ae 3f
       0.21565600289587927 0.05980215805417799
0001c0 95 8a f8 f5 7c b3 a6 3f f8 cb de de bc 2c b7 3f
       0.044338135743847186 0.09052639428300313
0001d0 b8 bd 90 74 c1 a9 c4 3f 83 f9 54 fd 01 c6 d0 3f
       0.16143053237600014 0.2620854352898265
0001e0 02 7c b6 b0 25 b5 d1 3f 64 67 be 24 31 03 c3 3f
       0.2766813493453243 0.14853491109971195
0001f0 10 6d 4d b0 8c 50 92 3f 96 c1 6c 93 ae d3 bf bf
       0.0178853972059701 -0.12432376002539622
000200 2a 6c cb 04 f8 ca cf bf d8 52 41 27 a0 a2 c8 bf
       -0.24838161691772714 -0.19246293942219128
000210 9f 4a 70 70 dd c0 bd bf 02 f9 11 11 d9 8c ae 3f
       -0.11622413630565596 0.05966833432556663
000220 54 6b e3 a2 5e 43 c2 3f e4 d8 9c b1 d7 e0 bc 3f
       0.14268095925839452 0.11280582510230236
000230 7c 41 4b 4b 3d 64 a3 bf 3e 5f 9e 35 da 76 d3 bf
       -0.03787414116016216 -0.3041291736239947
000240 9a 30 28 b9 c5 bc dc bf ba fb 92 e6 6a 90 dd bf
       -0.44902175027596913 -0.4619395496082991
000250 f0 d3 56 52 20 5e d9 bf b7 ee f0 f8 94 fc d2 bf
       -0.39637001076636036 -0.2966663771692128
000260 f0 bf b5 99 4f 3a c6 bf 06 91 03 08 75 e0 c6 bf
       -0.17365450864190235 -0.17872488871865516
000270 41 3b 87 20 e3 80 d5 bf d2 08 2e ed 2c 76 df bf
       -0.33599165131174763 -0.491587859745903
000280 38 01 d9 7c f9 f6 e4 bf cb a4 89 46 64 c1 e6 bf
       -0.6551482618743085 -0.7111073854149706
000290 9c d6 af 49 e1 ee e3 bf 26 5a 5d 37 e2 12 dd bf
       -0.6229101599880837 -0.4542775669737317
0002a0 3f e0 26 ba 91 f4 cd bf 73 a7 60 ae b3 46 c8 bf
       -0.23402616109319926 -0.18965765013245636
0002b0 a2 fa f0 8b 19 77 d6 bf 28 f3 76 33 4d 11 e3 bf
       -0.35101927438874203 -0.5958620076340582
0002c0 fc b6 f0 27 68 2d eb bf 1c 97 82 21 0c 82 ef bf
       -0.8492928295215445 -0.9846249250883576
0002d0 b2 1d f1 95 cf c1 ed bf 42 b2 37 1c f1 3e e9 bf
       -0.9299085548927251 -0.7889333296894352
0002e0 9c 90 83 b7 66 ec e3 bf 3c 63 a8 ea e2 69 e1 bf
       -0.6226075729614595 -0.5441755850944001
0002f0 f0 c3 36 06 5f 12 e3 bf f1 5f 0f 4a 09 48 e5 bf
       -0.5959925767293708 -0.665043491982031
000300 6b 26 b0 4a 94 18 ea bf 6e 1c 3c 13 c3 97 ef bf
       -0.8155003985168156 -0.9872756362609729
000310 aa f9 04 19 be 40 ef bf fe 6e 75 a0 48 0c eb bf
       -0.976653145662387 -0.8452494749030561
000320 ba e0 06 ce 9a c6 e3 bf 60 b7 df 30 dd 0a e1 bf
       -0.6179937385523069 -0.5325761751716804
000330 13 97 df 44 fd 96 e1 bf 08 be c8 16 00 e0 e8 bf
       -0.5496813149627279 -0.7773437924387858
000340 4e 93 fc 94 65 93 e8 bf c9 46 9c cd e4 af ea bf
       -0.7679927739996886 -0.8339714065388871
000350 24 61 2b ce 10 21 ec bf 79 13 f5 fe 0c c8 ea bf
       -0.8790363337275591 -0.8369202594409294
000360 c8 19 ec 2e 66 5c e2 bf 54 d4 2d aa 49 41 e0 bf
       -0.5737791935396723 -0.507969696408177
000370 a9 9b 7e 20 56 fa dd bf 98 08 e3 58 be 6b e2 bf
       -0.4684043233232225 -0.5756522880622184
000380 74 dd a9 c5 1f 75 e9 bf 27 5a e4 6b a7 a6 ed bf
       -0.7955473766914296 -0.9265935046449315
000390 27 13 88 ca 0b 95 f0 bf 70 02 8d ed 90 61 f0 bf
       -1.03638819803127 -1.0238198546723218
0003a0 99 ed d9 99 85 e6 eb bf 4a 5d 20 a8 80 f5 e8 bf
       -0.8718898777873846 -0.7799685748786171
0003b0 8a 8a 61 f6 61 0d e7 bf 28 3e c0 34 76 19 e8 bf
       -0.7203836261872578 -0.7531081228534662
0003c0 fa 33 d0 03 f9 fd ee bf 19 34 51 2b 87 dd f1 bf
       -0.9685025286177045 -1.1165839855268642
0003d0 15 e5 e8 c8 bb 72 f5 bf 26 17 61 ed 27 7b f5 bf
       -1.3405111167942938 -1.3425673744799922
0003e0 06 f6 c5 f9 b8 76 f3 bf 4b c6 2b d2 a9 72 f0 bf
       -1.2164850003022152 -1.0279939851574393
0003f0 04 97 b6 43 21 4d ec bf 5d e5 f9 48 ed 58 ec bf
       -0.8844152758144621 -0.8858553338351772
000400 19 28 c7 67 0b 65 f0 bf 41 3e 2a 88 9b 47 f3 bf
       -1.0246690801454916 -1.2049823111482427
000410 91 84 18 21 dc d4 f7 bf 54 79 cd 3d 36 8c f8 bf
       -1.4894677441409707 -1.5342314161458335
000420 9f 3c b3 c4 11 d8 f6 bf 5a bb c4 20 ab 70 f3 bf
       -1.4277513202285161 -1.21500695038022
000430 f4 4a de f9 18 72 f0 bf 0d 6b a5 62 69 bf ef bf
       -1.0278558502656638 -0.9921156813319115
000440 65 2d 23 09 18 da f1 bf 06 e2 b7 c4 33 f5 f4 bf
       -1.1157455784731038 -1.3098638233478836
000450 25 f9 e3 ed a6 49 f7 bf 3b bb 45 b7 e8 dd f7 bf
       -1.4554814617727712 -1.4916770133092558
000460 a0 39 3a 65 41 9f f7 bf 4a fc ee 2a 10 03 f4 bf
       -1.4763807253071732 -1.2507478406039518
000470 9b 95 65 c6 ae 36 f2 bf 41 5b bd 05 fa 90 f0 bf
       -1.1383502721667813 -1.0353946899610522
000480 51 82 bb 87 0a 15 f1 bf e6 35 d0 c9 06 fa f4 bf
       -1.0676369955109701 -1.3110416301091106
000490 2f 56 54 0a c4 e4 f9 bf 28 5f 03 34 d6 4d fc bf
       -1.6183510211461785 -1.7690031081928712
0004a0 a8 6c 87 13 ea 76 fc bf 35 2e 31 6d 61 17 fa bf
       -1.7790318262912397 -1.6307081475560044
0004b0 80 19 68 fe a7 1d f7 bf 9d 96 da 0d 6d b7 f4 bf
       -1.4447402894744243 -1.294781736485141
0004c0 df ce b1 87 f1 b8 f4 bf 4f d7 94 9c d2 9f f6 bf
       -1.2951522160118925 -1.4140192142926542
0004d0 ab e6 55 b2 75 e4 fa bf 13 5f 07 eb 62 3a ff bf
       -1.6807763067467174 -1.9517544918834957
0004e0 36 e6 ba 97 f3 c7 ff bf 96 e6 4b 9a 62 e4 fe bf
       -1.986316292472464 -1.9307580973822147
0004f0 8e 01 38 77 7c 4e fc bf e4 35 99 04 b9 89 f9 bf
       -1.7691616684897755 -1.5961237125042027
000500 f1 fd d4 02 fb 8f f8 bf ed bc ad 7f e8 c5 fa bf
       -1.5351514921784395 -1.6733174312064947
000510 82 6a d3 56 7b 5d fe bf 8b 2e 53 fc 4d 86 ff bf
       -1.897822703517392 -1.9702892166559731
000520 22 a0 f8 c0 1d 76 00 c0 4a 8a ee e3 69 19 00 c0
       -2.057673938357781 -2.012409001080674
000530 89 d0 df f5 1e b9 fd bf 21 08 aa 79 7f 4a f9 bf
       -1.8576955418075463 -1.5806879761225974
000540 d9 a6 50 73 18 58 f7 bf 43 c8 e7 5a 63 28 f8 bf
       -1.4590076927656155 -1.509860377406327
000550 90 2e 81 19 6d 52 fa bf 32 e7 58 46 b9 28 fe bf
       -1.6451235767625896 -1.8849423168125665
000560 7e 34 50 8e 39 5b 00 c0 48 2c 92 99 23 67 00 c0
       -2.044543372938789 -2.050360870145173
000570 39 7f 42 b4 cd be fe bf 9e 9f 89 44 a1 b1 fa bf
       -1.9215828935047752 -1.6683666875123673
000580 07 c6 b0 d2 93 73 f8 bf 46 57 3d e2 db a5 f8 bf
       -1.528217146882868 -1.5404929006085282
000590 c2 4e df 05 18 8c fa bf 72 56 cf 91 bc e4 fc bf
       -1.6592025975595992 -1.805843896455738
0005a0 eb a4 77 ff e1 57 ff bf 5e 4b 6b 64 a6 bf ff bf
       -1.95895576278627 -1.9842895434018923
0005b0 66 04 03 51 84 41 ff bf e8 64 b7 72 ad a9 fb bf
       -1.9534953274271856 -1.7289251786335686
0005c0 c0 ea d2 d1 ee d8 f7 bf de 2b a5 10 72 36 f7 bf
       -1.4904621311422233 -1.4507923746302747
0005d0 fc 36 cd 22 33 b1 f9 bf 8d 91 bc d7 83 f0 fc bf
       -1.605761657661275 -1.808719485016897
0005e0 97 9e d6 70 67 c2 ff bf 97 5d 67 03 33 aa 00 c0
       -1.984961930060228 -2.0831051126403497
0005f0 33 bd 00 59 12 4e 00 c0 9e ef 9b ec 3c 61 fd bf
       -2.038120932898573 -1.8362397425216623
000600 5a 9e 22 f8 e0 aa fa bf ac d6 ac 35 bc 5b f9 bf
       -1.6667184536726354 -1.5848962876020023
000610 f5 c9 02 2b ea f3 fa bf 54 34 7f 2b 47 ec fe bf
       -1.6845494918931057 -1.9326850604150154
000620 3f 66 5b f6 65 3b 01 c0 4d e9 d3 ca f9 82 02 c0
       -2.1540030714648135 -2.3139530034942823
000630 c3 0f 03 77 2d c1 02 c0 db a2 05 c3 a5 38 02 c0
       -2.344324998646671 -2.277659915551664
000640 4f 3f 72 90 a8 38 01 c0
       -2.1526652607789525
